gnn_elliptic_model.pth (torch, 45963 bytes, 4 tensors)

bias f4 [64]
000000 da 03 bb bd 5e 7b 89 3d 2f 22 c2 3d 76 3b a1 3d
       -0.09131594 0.067129835 0.09479176 0.078726694
000010 b0 09 93 bd 4e 7d 54 bc 0c ba 84 bd 76 0e 1a bd
       -0.07179582 -0.012969328 -0.06480798 -0.037611447
000020 d0 18 bf 3c 7a 66 0a bd 83 11 b0 bc be 43 09 3d
       0.023327261 -0.033789136 -0.021492725 0.03351187
000030 87 a7 96 bd 17 cc 4c bd a0 b8 1b bd c3 c0 01 bd
       -0.07356172 -0.049999323 -0.03801787 -0.031677973
000040 95 dc 57 bd 51 a9 ed 3c fc c9 ec bc 76 1b ad 3d
       -0.052700598 0.0290114 -0.028904907 0.084525034
000050 bc a8 93 3d d9 1e 1b bd 7e 07 7b bc 43 28 0b bd
       0.07209918 -0.037871215 -0.0153216105 -0.033973943
000060 fb 7c b8 3c 76 50 a7 3d 5b cd 0d 3d d7 33 f1 3d
       0.022520533 0.081696436 0.03461967 0.11777466
000070 c9 36 5e bd a1 13 b8 3c 05 12 94 bd 24 cd 7d bd
       -0.054251466 0.022470297 -0.072299995 -0.061963215
000080 7c 30 25 bd 8a 82 9b bd 6f ef 7e 3e 65 09 1d 3e
       -0.04032944 -0.07593258 0.24896024 0.15335615
000090 15 b6 f9 3d 7d 68 95 bd 2c f0 58 bd 09 26 98 bd
       0.121929325 -0.0729532 -0.05296342 -0.0742913
0000a0 11 15 50 bd ef f6 ca 3c cd 37 60 bd 08 6c 80 bc
       -0.05080134 0.02477595 -0.054740716 -0.015676513
0000b0 70 25 ef bc 19 fa db 3c 3e cb 36 3e 62 16 79 3c
       -0.029192656 0.026852654 0.17850968 0.01520309
0000c0 d6 a3 85 bd e7 12 c2 3d a1 2b 74 3d 68 0f 85 bd
       -0.0652539 0.094762616 0.05961192 -0.06497079
0000d0 e2 9d 89 3d 70 14 38 bd ea 1e bb bc a1 45 a1 3d
       0.06719567 -0.044941366 -0.02284189 0.07874609
0000e0 32 ad 3c 3d db 79 a6 3d d0 c5 c7 bd 3f c9 ff 3c
       0.04606361 0.08128711 -0.097545266 0.031223891
0000f0 1d 4f 9d bd 53 cd 4e 3d 9d 93 c2 3c 0d 9e 58 bd
       -0.07681105 0.05048878 0.023752028 -0.052885104

lin.weight f4 [64, 166]
000000 66 12 5a 3c 8b 44 69 3d 6b df 75 be 66 5e 81 3d
       0.013310051 0.056950133 -0.24011008 0.06316833
000010 73 e6 46 3d 1c 54 0e be 2a 0f 88 3d 56 dc 8e bd
       0.048559617 -0.13899273 0.06643517 -0.069756195
000020 5a d0 1c 3b cf 9c ea 3b 05 37 af 3d d9 f5 be bd
       0.0023927898 0.0071598063 0.08555416 -0.093242355
000030 31 99 23 bc 0e 93 db 3c 8c 1a 1c bd 4c 21 ab bd
       -0.009985254 0.02680352 -0.038111255 -0.0835596
000040 03 9a 3c be 96 78 cd bb e7 56 b8 bc 27 86 3e be
       -0.18418126 -0.0062704785 -0.022502376 -0.18605863
000050 86 ab f9 bd 02 f0 99 bd 2b 51 96 bd a8 54 b5 bc
       -0.121909186 -0.07516481 -0.073397 -0.022135094
000060 16 41 8b 3a 53 77 30 be db c3 d9 3d b5 d9 87 bd
       0.0010624256 -0.17233019 0.106330596 -0.06633321
000070 41 c0 7c 3d 77 41 bf bd 0c 99 3a bc e7 96 7f 3d
       0.061706785 -0.09338658 -0.011389028 0.06239977
000080 70 ce ad 3d 38 82 79 3c 16 62 9e bd f1 42 5a b9
       0.084866405 0.0152288005 -0.07733552 -0.00020815038
000090 e5 a4 92 3b 93 a8 c0 bc 5f 95 dc 3d f7 a7 c4 3d
       0.0044752234 -0.023517882 0.10770678 0.09602349
0000a0 7d 23 1c be 55 23 5c be bf d3 07 be 59 ac 36 be
       -0.15247913 -0.21497853 -0.13264368 -0.17839183
0000b0 0b f6 47 3e 6b 36 1f 3e 05 f8 27 be cc b6 33 be
       0.19527452 0.15548103 -0.16403206 -0.175502
0000c0 84 80 b3 bd aa 74 2f be 71 a7 c9 3d 9d 84 6d 3d
       -0.08764747 -0.17134348 0.0984639 0.057987798
0000d0 ce 37 e0 be f9 7a 39 be fb b7 15 3e 1c 42 52 be
       -0.43792576 -0.18113317 0.14620964 -0.20533031
0000e0 4a 52 c9 bd 45 e1 12 3d 52 7b 93 bd bb 70 fc bd
       -0.098301485 0.035859365 -0.07201256 -0.12326189
0000f0 ac 13 60 bd 08 b9 95 bd 1d 16 1a 3d 22 bf bf 3c
       -0.05470626 -0.073106825 0.037618745 0.023406569
000100 da 8e 93 bd e9 67 04 be d9 60 a8 bd ee 76 98 bd
       -0.07204981 -0.12930264 -0.08221597 -0.07444559
000110 99 42 75 3d 17 2d a8 bc 82 33 2c 3d 08 f6 f9 bc
       0.059877966 -0.020529313 0.04204131 -0.030512825
000120 9a 02 3a bd 41 7d 83 bc bc 80 05 3f e1 c0 04 3f
       -0.045412637 -0.016050937 0.5214956 0.5185681
000130 2d 18 c7 bd c5 f9 a6 be c4 5e 60 be 8c c1 06 be
       -0.09721408 -0.32612434 -0.2191115 -0.1315977
000140 44 f8 3e bd 50 0f e0 bd 5f 15 0f be 9b 0a 52 be
       -0.046623483 -0.10940421 -0.13972996 -0.20511858
000150 ad b7 db bd 40 1f 31 be 3c 94 00 3e 40 ee 06 3e
       -0.10728393 -0.17297077 0.12556547 0.13176823
000160 8c ab 94 3b cc f3 ed 3d 67 6e 31 be 0e 50 b7 be
       0.0045370515 0.11618766 -0.17327271 -0.35803264
000170 9a dc 79 3b 8e cc db bc fd 70 89 3d c2 07 5c 3d
       0.0038125874 -0.026830938 0.06711004 0.053718336
000180 77 fa c7 bd bd 0c 24 bd 31 55 32 3d a7 a7 af 3d
       -0.09764569 -0.04005121 0.043538276 0.08576899
000190 f1 8a 54 3d ae 84 03 3e d0 40 45 bd ee eb d0 3d
       0.051890317 0.12843582 -0.048157513 0.1020125
0001a0 f2 38 b9 3d e7 fb 69 bd cf 32 c5 bd 7b cd 88 bd
       0.090440646 -0.057125 -0.096288316 -0.06679817
0001b0 06 8d 6a 3d 68 0f 4e 3c f4 12 03 be c0 94 17 bc
       0.057263397 0.012576915 -0.12800199 -0.009251773
0001c0 4f 42 b6 3d 2a c6 a6 3b 94 7a 62 bc e0 76 be 3d
       0.08899366 0.005089541 -0.01382317 0.09300017
0001d0 45 24 e4 bd d3 6e 5e bd f3 88 f1 3c f7 13 31 bd
       -0.1113973 -0.05430491 0.029484248 -0.04323193
0001e0 9c 03 58 bd 90 1d af bd c8 6e 7e 3b a6 70 50 3d
       -0.052737817 -0.085505605 0.0038823355 0.05088868
0001f0 0b e7 55 be 37 27 3c bd 12 91 cc 3a 47 3e f8 bd
       -0.20888917 -0.045935836 0.0015607199 -0.121212535
000200 ac 26 02 3d 7e b5 f6 3c 6c 95 49 3c 77 18 91 bc
       0.03177516 0.03011584 0.012303691 -0.017711861
000210 af 50 e4 bc df f3 23 bc 85 9f e4 bd 45 c0 75 bb
       -0.027870504 -0.010006874 -0.111632384 -0.0037498635
000220 5e cc ae 3d 46 57 0a ba 10 86 58 be 10 9b 4e bd
       0.08535074 -0.0005277287 -0.21144891 -0.050440848
000230 37 0c 8b 3d 01 b2 7f bd 2d b4 28 3e e3 8c 68 3d
       0.06789439 -0.062425617 0.16474982 0.056774985
000240 ac 46 b8 bc fc e2 38 39 70 84 06 3d be ef ef 3d
       -0.022494636 0.00017632166 0.032841146 0.11715649
000250 71 6d 5d 3d a8 e7 bb bd cb 33 02 be 62 8a 83 bd
       0.05405945 -0.09175044 -0.1271507 -0.06422879
000260 06 c5 e8 bd bd 90 75 be 8c 4c 2d 3e b8 b2 aa 3d
       -0.11365704 -0.23980995 0.16923732 0.08334869
000270 70 41 fc bd e2 96 4c be b8 e6 68 bd 19 e7 96 bd
       -0.12317169 -0.19979432 -0.056860656 -0.07368297
000280 cf 9f 30 bf e3 9a 71 bc f7 53 2e bc 9a a1 4d be
       -0.6899385 -0.0147464005 -0.010640136 -0.20081177
000290 3b a0 63 bd 8f 13 59 3b 71 b2 9e bd 12 bf 88 3d
       -0.05557273 0.003312323 -0.07748879 0.06677069
0002a0 79 e2 98 3d a6 07 32 3d ff 7e 47 bd 9c 88 a6 bd
       0.07465071 0.043464325 -0.048705097 -0.08131525
0002b0 2c 2a 3a bd 7d 6f c7 3c ea c3 33 3b 70 b9 b1 b9
       -0.045450374 0.024345154 0.0027430006 -0.00033898233
0002c0 2c 6c 15 3d 62 56 6d bd f1 3b 07 3d ab bf db 3c
       0.036480114 -0.05794371 0.03301615 0.026824793
0002d0 1e e5 79 bd 45 03 a8 bc 9c e5 dd 3d b7 cc b1 3c
       -0.06100952 -0.020509372 0.1083481 0.021704061
0002e0 4d 81 a0 3a 0f 7b 98 3c 99 39 9f 3d ce e0 16 3e
       0.0012245566 0.018613366 0.07774658 0.14734194
0002f0 53 db b3 bc 27 7b 9e bd 21 3e a0 bc cb 13 c8 3d
       -0.021955168 -0.07738333 -0.019560875 0.097694
000300 81 4c 18 3d 85 01 33 bb 3e 03 55 3d 31 38 f5 ba
       0.037182335 -0.0027314138 0.052005045 -0.0018708763
000310 70 a7 9c bc bf ba f1 3d 01 e3 3b bb 17 7a 96 bd
       -0.01912281 0.11803197 -0.002866924 -0.073475055
000320 74 70 da bd 7f 37 ae bd 8f 17 88 3c da b5 21 3d
       -0.1066598 -0.08506679 0.016612796 0.039480068
000330 c9 4f 9d 3c ea bc 2b bd 25 02 bc bd 54 de ba 3d
       0.019203084 -0.04192821 -0.091800965 0.09124437
000340 de b7 eb 3c 56 b3 5a 3d 6a f0 4c 3d ee 58 b0 3d
       0.028774198 0.053393684 0.050033964 0.08610712
000350 ce 00 00 bd 72 3c e6 bc 5e 49 ee 3b 2e 94 e5 3d
       -0.031250767 -0.028104994 0.0072719296 0.11209904
000360 98 d2 c9 3d 85 ba 28 3d 18 b3 67 3c 67 61 10 be
       0.09854621 0.041193504 0.01414182 -0.14099656
000370 fb 40 45 be df 3e f2 3d 67 f2 38 3d c6 b9 22 bb
       -0.1926307 0.11828398 0.045153048 -0.0024829968
000380 c2 66 f7 bd 17 d6 6a bc 00 9c 03 3d c7 79 bb 3d
       -0.12080146 -0.01433327 0.032131195 0.091540866
000390 3b 7f 7c bb 8b ce ea 3d f5 78 01 3d 51 cf db 3c
       -0.0038527984 0.11465176 0.031609494 0.026832255
0003a0 de 45 d6 3d 6b 56 dc 3d fc 1b 82 3d 98 ab f7 3a
       0.10462545 0.107586704 0.06352994 0.0018895743
0003b0 d7 e1 a2 bc d6 dd 23 be 96 5e 87 bd b2 1a e9 bb
       -0.01988308 -0.16002592 -0.06609838 -0.007113778
0003c0 f8 71 e6 3c 2a 10 3d 3d a9 62 bc 3b 93 46 ba 3d
       0.028130516 0.046157993 0.005749066 0.09095492
0003d0 41 11 cb bd ab 0f 25 3e e9 86 dd 3d dd c2 19 3d
       -0.099154 0.16119258 0.10816748 0.03753935
0003e0 58 7f 20 3d ca 81 58 3a 03 08 a9 bb 3f 78 1f 3e
       0.039183944 0.0008259086 -0.005158426 0.15573214
0003f0 2d 96 cb bd 34 6b a0 bd b2 95 57 bb 28 3d 6d bd
       -0.09940753 -0.078329474 -0.0032895622 -0.05791965

bias f4 [2]
000000 50 03 24 3e 53 03 24 be
       0.16016889 -0.16016893

lin.weight f4 [2, 64]
000000 b5 7f cb be 3f 2e 6a 3e fc 81 75 bd 7a 45 25 be
       -0.3974587 0.22869204 -0.059938416 -0.16139784
000010 11 27 50 be 6c 25 9e 3d 9a 21 ad bd fb e5 9c be
       -0.20327403 0.077219814 -0.084536746 -0.3064421
000020 46 e4 10 3e 8e 60 bd be aa 77 ec bd 21 25 33 3d
       0.1414958 -0.36987728 -0.115462616 0.04373658
000030 0d d1 55 3e 21 44 0e 3e f0 d7 c6 3c ba f6 47 3e
       0.20880528 0.13893177 0.024272889 0.19527712
000040 b7 35 0a be 4e 3e d3 3e e4 64 91 3e 97 67 a5 3e
       -0.13497053 0.41258472 0.28397286 0.32305595
000050 f2 5d ba 3b e7 b4 67 be 2c 5b ad 3e 9c 4f 99 3e
       0.0056874687 -0.22627603 0.3385862 0.2994355
000060 63 c2 bb 3e 92 95 a4 3e 5e 25 0a 3e d8 11 d4 bc
       0.36671743 0.32145363 0.13490817 -0.025887415
000070 fe 67 ce be 2b d1 a6 3e 91 b2 8d be 5e d5 91 be
       -0.40313715 0.32581457 -0.27675298 -0.284831
000080 ae aa 34 ba fd 11 98 be b3 90 98 3e 82 cd b0 3e
       -0.00068918883 -0.29701224 0.29797897 0.3453179
000090 b8 1a 7c 3d b4 90 dc 3b 5b 6b 30 bd 08 b3 cf 3c
       0.06154892 0.006731117 -0.043071132 0.025353923
0000a0 4f 9b 2b 3e df f0 ed 3d b4 6c 0b bd 01 cf 22 be
       0.16758464 0.11618208 -0.034039214 -0.15899278
0000b0 52 78 3e 3e 20 c8 81 3e 7e d7 4f 3e 68 30 ba 3d
       0.18600586 0.25347996 0.20297047 0.09091264
0000c0 3d ed 7b bd 35 59 c0 3e 4d 4d 83 3e 70 e1 5e be
       -0.061505545 0.3756806 0.25644913 -0.21765685
0000d0 96 77 fc 3d 49 0b 48 be d0 fb 32 be 4b e5 6f 3e
       0.12327497 -0.19535555 -0.17478871 0.23427312
0000e0 fc 6d 04 be c0 91 ab 3e 63 96 8a 3c ad 9a 8a 3e
       -0.1293258 0.33509636 0.016917413 0.27071133
0000f0 0b c4 2b be bd 07 8a 3e d2 51 84 3e 6f 7d 33 be
       -0.16774003 0.2695903 0.25843674 -0.17528318
000100 ec 88 fe 3e ba 1d 69 be ec a9 fa be b5 eb a4 be
       0.49713838 -0.22765246 -0.48957765 -0.3221108
000110 55 f1 f4 3d 0a 81 3a 3d ab b5 ca be a0 2f 93 bd
       0.11960093 0.045533217 -0.39591727 -0.07186818
000120 56 86 d1 bd fe de 9c 3e 1b 31 64 be b1 d7 2b be
       -0.10230701 0.3063888 -0.22284357 -0.16781498
000130 4c a7 a9 bd 88 52 6f 3e 5d f6 40 3e 18 85 97 3c
       -0.082838625 0.23371327 0.1884398 0.018496081
000140 47 79 03 3e bd 45 63 be 1d 12 a9 3c af ad a5 be
       0.12839232 -0.22194572 0.02063852 -0.32359073
000150 2c 59 b3 be 36 1c 57 be f1 d8 81 be b0 a2 e3 bd
       -0.3502897 -0.21006855 -0.25360826 -0.111150146
000160 82 98 4d 3d cf da ba be c4 2e 77 be a3 e7 fa be
       0.05019427 -0.36495063 -0.24138933 -0.4900485
000170 1c 9a b9 3e 95 4f 88 be 78 c5 cf 3e 60 63 1e 3e
       0.3625039 -0.26623216 0.40580344 0.15467596
000180 bf 1d 1f 3e 3d 72 8d 3e 2e 8d bd be c4 b6 a4 3b
       0.15538691 0.2762622 -0.37021774 0.00502667
000190 95 41 5e be 33 10 64 3e 6c 32 8e 3e 9f ce 0f be
       -0.21704705 0.22271805 0.27772844 -0.14043663
0001a0 00 d4 4d 3e 87 1c f1 39 94 a2 ad be de df 8d be
       0.20100403 0.00045988357 -0.339131 -0.2770986
0001b0 31 29 de 3c ca 56 29 be 42 b4 ed be 53 a4 53 be
       0.027119251 -0.16537014 -0.46426588 -0.20668153
0001c0 55 44 48 3e 33 f0 0f be 98 b1 8b 3d 55 1c dc 3d
       0.19557317 -0.14056472 0.06820983 0.107475914
0001d0 ac e4 83 be 2c 30 05 3e e6 54 61 3e ef c1 9f be
       -0.257604 0.13006657 0.22005042 -0.31202647
0001e0 11 8e 9a be 41 a9 99 be 87 c1 4d be 20 44 09 be
       -0.30186513 -0.30011943 -0.20093356 -0.13404894
0001f0 13 67 cb 3d 75 d4 92 be 61 20 98 be ce 06 97 bc
       0.09931769 -0.28677717 -0.29712203 -0.018435862
